model_training/training/models/best_model.pt (torch, 129461 bytes, 23 tensors)

adj_parameter f4 [14, 14]
0	0x3f872a94	1.0559869
1	0x3f88a08a	1.0673993
2	0x3fa4c98b	1.2874006
3	0x3f3583de	0.7090434
4	0x3f82f1e2	1.0230067
5	0x3f3fbbdd	0.7489603
6	0x3fa5299c	1.2903323
7	0x3f486645	0.7828105
8	0x3f9dff9f	1.2343634
9	0x3f699b47	0.9125256
10	0x3fa20156	1.2656658
11	0x3faea5ef	1.3644389
12	0x3f582dde	0.8444499
13	0x3f98086e	1.1877573
14	0x3f88a08a	1.0673993
15	0x3faa11ff	1.3286742
16	0x3f9b1a9d	1.2117497
17	0x3f46e949	0.77699715
18	0x3f5d0754	0.86339307
19	0x3f459069	0.7717348
20	0x3f8fde95	1.1239802
21	0x3f4f54ed	0.8098896
22	0x3f7c160c	0.9847114
23	0x3f5785ba	0.84188426
24	0x3f84a489	1.0362712
25	0x3f7d683f	0.9898719
26	0x3f46e565	0.7769378
27	0x3f57a9ca	0.8424345
28	0x3fa4c98b	1.2874006
29	0x3f9b1a9d	1.2117497
30	0x3f9774bf	1.1832503
31	0x3f15aca4	0.58466554
32	0x3f95bca2	1.1698191
33	0x3f3e1b58	0.74260473
34	0x3f9615b5	1.1725374
35	0x3f1012a6	0.56278455
36	0x3fac5def	1.3466166
37	0x3f38da53	0.72208136
38	0x3f74d298	0.9563384
39	0x3f49d98c	0.78847575
40	0x3f0960eb	0.5366351
41	0x3f1ab03e	0.60425174
42	0x3f3583de	0.7090434
43	0x3f46e949	0.77699715
44	0x3f15aca4	0.58466554
45	0x3f82a653	1.0207008
46	0x3f42ce37	0.7609591
47	0x3efbfb80	0.49215317
48	0x3efec2e3	0.49758062
49	0x3f6e3601	0.93051153
50	0x3f3d12c1	0.7385674
51	0x3eec890f	0.46198317
52	0x3f30a557	0.6900229
53	0x3f427361	0.75957304
54	0x3f7a4d8f	0.97774595
55	0x3f893591	1.0719472
56	0x3f82f1e2	1.0230067
57	0x3f5d0754	0.86339307
58	0x3f95bca2	1.1698191
59	0x3f42ce37	0.7609591
60	0x3fad38e6	1.3532989
61	0x3eda80dd	0.4267644
62	0x3fab2e13	1.3373436
63	0x3f354321	0.70805556
64	0x3faac1e1	1.3340417
65	0x3ee60466	0.4492523
66	0x3f8779ad	1.0584008
67	0x3f7f5780	0.9974289
68	0x3f6d162c	0.92611957
69	0x3f5778ad	0.8416851
70	0x3f3fbbdd	0.7489603
71	0x3f459069	0.7717348
72	0x3f3e1b58	0.74260473
73	0x3efbfb80	0.49215317
74	0x3eda80dd	0.4267644
75	0x3f9193c5	1.1373221
76	0x3f22175e	0.63316905
77	0x3f1852c7	0.5950131
78	0x3eabbc1c	0.33541954
79	0x3fa16e3c	1.2611766
80	0x3f55c4a2	0.8350316
81	0x3f286657	0.6578116
82	0x3f2cb2b7	0.674602
83	0x3f68de3c	0.909641
84	0x3fa5299c	1.2903323
85	0x3f8fde95	1.1239802
86	0x3f9615b5	1.1725374
87	0x3efec2e3	0.49758062
88	0x3fab2e13	1.3373436
89	0x3f22175e	0.63316905
90	0x3fa44684	1.283402
91	0x3ed4c4d7	0.41556427
92	0x3fc20956	1.5159099
93	0x3f0fc274	0.56156087
94	0x3f723d66	0.94624937
95	0x3f3866b5	0.7203172
96	0x3f118d10	0.5685587
97	0x3f388afe	0.72087085
98	0x3f486645	0.7828105
99	0x3f4f54ed	0.8098896
100	0x3f1012a6	0.56278455
101	0x3f6e3601	0.93051153
102	0x3f354321	0.70805556
103	0x3f1852c7	0.5950131
104	0x3ed4c4d7	0.41556427
105	0x3f749384	0.9553759
106	0x3f419945	0.75624496
107	0x3ef54705	0.47905746
108	0x3f0a19b1	0.5394545
109	0x3f16f1b2	0.5896255
110	0x3f6e0227	0.92972034
111	0x3f642122	0.89113057
112	0x3f9dff9f	1.2343634
113	0x3f7c160c	0.9847114
114	0x3fac5def	1.3466166
115	0x3f3d12c1	0.7385674
116	0x3faac1e1	1.3340417
117	0x3eabbc1c	0.33541954
118	0x3fc20956	1.5159099
119	0x3f419945	0.75624496
120	0x3fbef69e	1.4919012
121	0x3efd728d	0.49501458
122	0x3f9db824	1.232182
123	0x3f88b68e	1.0680711
124	0x3f6ffd0a	0.9374548
125	0x3f6f5885	0.93494445
126	0x3f699b47	0.9125256
127	0x3f5785ba	0.84188426
128	0x3f38da53	0.72208136
129	0x3eec890f	0.46198317
130	0x3ee60466	0.4492523
131	0x3fa16e3c	1.2611766
132	0x3f0fc274	0.56156087
133	0x3ef54705	0.47905746
134	0x3efd728d	0.49501458
135	0x3fade03b	1.3584055
136	0x3f3991ae	0.72487915
137	0x3f1dca51	0.61636835
138	0x3eccf256	0.40028638
139	0x3f21a531	0.6314269
140	0x3fa20156	1.2656658
141	0x3f84a489	1.0362712
142	0x3f74d298	0.9563384
143	0x3f30a557	0.6900229
144	0x3f8779ad	1.0584008
145	0x3f55c4a2	0.8350316
146	0x3f723d66	0.94624937
147	0x3f0a19b1	0.5394545
148	0x3f9db824	1.232182
149	0x3f3991ae	0.72487915
150	0x3f6f68a0	0.9351902
151	0x3f40c9b4	0.75307775
152	0x3f23f25b	0.6404168
153	0x3f2a504b	0.6652877
154	0x3faea5ef	1.3644389
155	0x3f7d683f	0.9898719
156	0x3f49d98c	0.78847575
157	0x3f427361	0.75957304
158	0x3f7f5780	0.9974289
159	0x3f286657	0.6578116
160	0x3f3866b5	0.7203172
161	0x3f16f1b2	0.5896255
162	0x3f88b68e	1.0680711
163	0x3f1dca51	0.61636835
164	0x3f40c9b4	0.75307775
165	0x3f1c6ace	0.6110047
166	0x3f023cf3	0.5087425
167	0x3f01269c	0.5044954
168	0x3f582dde	0.8444499
169	0x3f46e565	0.7769378
170	0x3f0960eb	0.5366351
171	0x3f7a4d8f	0.97774595
172	0x3f6d162c	0.92611957
173	0x3f2cb2b7	0.674602
174	0x3f118d10	0.5685587
175	0x3f6e0227	0.92972034
176	0x3f6ffd0a	0.9374548
177	0x3eccf256	0.40028638
178	0x3f23f25b	0.6404168
179	0x3f023cf3	0.5087425
180	0x3f86a4f1	1.0519086
181	0x3f463b30	0.7743406
182	0x3f98086e	1.1877573
183	0x3f57a9ca	0.8424345
184	0x3f1ab03e	0.60425174
185	0x3f893591	1.0719472
186	0x3f5778ad	0.8416851
187	0x3f68de3c	0.909641
188	0x3f388afe	0.72087085
189	0x3f642122	0.89113057
190	0x3f6f5885	0.93494445
191	0x3f21a531	0.6314269
192	0x3f2a504b	0.6652877
193	0x3f01269b	0.5044953
194	0x3f463b30	0.7743406
195	0x3f2ad3e0	0.66729546

gcn.weight f4 [1, 16]
0	0x3ea3133d	0.31850615
1	0xbe6556e1	-0.22396423
2	0xbe888d18	-0.26670146
3	0xbdff8a02	-0.12477495
4	0x3ef67b0b	0.4814075
5	0xbe049329	-0.12946762
6	0x3e8bad49	0.27280644
7	0x3e19dfdd	0.15026803
8	0x3c2329b3	0.009958672
9	0xbecc2002	-0.3986817
10	0x3ebb4f9d	0.36584178
11	0xbd848338	-0.064703405
12	0xbcd02981	-0.025410416
13	0x3d8c3734	0.06846467
14	0xbe2d35c4	-0.16915041
15	0xbda5b5b0	-0.08091295

gcn.bias f4 [16]
0	0xbe32aa91	-0.17447878
1	0x3dae1eb2	0.085019484
2	0xbd5a0b66	-0.053233527
3	0x3d242d2d	0.040082145
4	0x3e004360	0.12525702
5	0x3d4d53ad	0.050128628
6	0xbd77d6b4	-0.06050749
7	0xbbb96d00	-0.0056587458
8	0x3cd30f62	0.025764171
9	0xbde69728	-0.112592995
10	0xbde3763e	-0.11106537
11	0x3d5b08df	0.053475257
12	0x3d609518	0.054829687
13	0x3c8f1f92	0.017471109
14	0x3cb94fba	0.022621024
15	0x3d17ba0d	0.037042666

gcn.norm.weight f4 [16]
0	0x3f976c8e	1.1830003
1	0x3f47df34	0.78074956
2	0x3f8a2976	1.0793903
3	0x3f5461d9	0.82961804
4	0x3f307e2b	0.6894252
5	0x3f54eeb2	0.8317672
6	0x3f8ef017	1.116702
7	0x3f82bad9	1.0213271
8	0x3f4682d5	0.77543384
9	0x3f87d971	1.0613233
10	0x3f9272f4	1.1441331
11	0x3f446dd7	0.767301
12	0x3f1f7f34	0.6230347
13	0x3f6c1940	0.9222603
14	0x3f60a5f8	0.8775325
15	0x3f4f2986	0.80922735

gcn.norm.bias f4 [16]
0	0x3d35f7e2	0.044425853
1	0xbe8020f6	-0.25025147
2	0xbde70e26	-0.112819955
3	0xbe6ea67d	-0.23305698
4	0xbe83c84b	-0.2573875
5	0xbe7cbc90	-0.24681306
6	0x3d4725de	0.048620097
7	0x3ceebdf3	0.02914331
8	0xbe315843	-0.17318825
9	0xbd9db10d	-0.076997854
10	0x3d73472f	0.059394058
11	0xbe8bcd15	-0.27304903
12	0xbe686e8c	-0.2269842
13	0xbdd31cf8	-0.1030826
14	0xbe0d4115	-0.13794358
15	0xbe1726b6	-0.14760861

embedding.weight f4 [32, 224]
0	0xbd1939f0	-0.03740877
1	0xbd83c23b	-0.06433531
2	0xbdbff828	-0.09373504
3	0x3c7def4a	0.0154989455
4	0x3d92d6f9	0.07169909
5	0x3c880cf9	0.016607748
6	0x3c5df2fb	0.013546701
7	0x3cfaf1d7	0.030632896
8	0x3dda796c	0.10667691
9	0xbdb9d2ab	-0.09073385
10	0xbccc47dd	-0.02493661
11	0x3d095be3	0.033534896
12	0x3d8c80ac	0.0686048
13	0x3d6c0881	0.057625297
14	0xbd897f83	-0.06713774
15	0xbdc4b969	-0.09605677
16	0xbc4d1308	-0.012516744
17	0x3bdf92e8	0.0068229325
18	0xbc3601d1	-0.0111088315
19	0x3c66fce8	0.0140983835
20	0x3d303850	0.043022454
21	0xbcab96be	-0.020945903
22	0x3e263071	0.16229416
23	0x3c605729	0.013692656
24	0x3dbe63eb	0.092964016
25	0x3c561f96	0.013069054
26	0x3da95367	0.08267861
27	0xbd9788b2	-0.073991194
28	0xbcdd62d9	-0.027024673
29	0x3bbf95f8	0.005846735
30	0x3cee9746	0.029124867
31	0xbd90a3f2	-0.0706252
32	0xbcc0076f	-0.023441045
33	0x3d0de6da	0.034643985
34	0xbd13466d	-0.035955835
35	0xbd40c795	-0.047065336
36	0x3cbd20da	0.023086954
37	0xbd565b11	-0.05233294
38	0x3e21b000	0.15789795
39	0x3d0281ed	0.031862188
40	0x3da2c4b7	0.07947677
41	0xbd301b7e	-0.04299497
42	0x3e27f28b	0.16401117
43	0xbd7260a4	-0.059174195
44	0x3d2b8a3a	0.04187987
45	0x3d8c1324	0.06839588
46	0xbcf52377	-0.029924138
47	0xbc062085	-0.008186464
48	0xbc96ec0a	-0.0184231
49	0xbcb386fe	-0.021914955
50	0xbd4bd52f	-0.049763855
51	0x3c9deadd	0.01927703
52	0x3cf68818	0.030094191
53	0x3d585079	0.05281112
54	0xbc869f32	-0.016433332
55	0xbd9f33df	-0.077735655
56	0xbc9c2233	-0.019059276
57	0xbd44766f	-0.04796451
58	0xbc1f8f7d	-0.0097388
59	0x3b96d191	0.004602619
60	0xbd0f9887	-0.03505757
61	0xbdb4a475	-0.0882043
62	0x3ad605b4	0.0016328604
63	0x3cc2a517	0.023760362
64	0xbdfcbffd	-0.12341306
65	0x3c92f2a4	0.017937966
66	0xbc867e91	-0.016417773
67	0xbc432ae6	-0.011912083
68	0xbd4d7fb8	-0.05017063
69	0x3d67beef	0.056578573
70	0x3cb11b22	0.021619383
71	0xbd834a5b	-0.064106666
72	0x3d339571	0.04384369
73	0xbe1543fa	-0.14576712
74	0x3c8aaa3d	0.016926879
75	0xbc84dc6f	-0.016218392
76	0x3d8a68bd	0.067582585
77	0x3d4a2c8c	0.04935889
78	0x3d73a3c6	0.05948236
79	0x3d175076	0.036941968
80	0x3ddbc2da	0.10730524
81	0xbd7ee641	-0.062231306
82	0xbd1324c9	-0.035923753
83	0xbd8ba6f9	-0.06818957
84	0xbb8f480d	-0.004372603
85	0xbd0e84fa	-0.034794785
86	0x3e5f9dfe	0.21837613
87	0x3de128df	0.10994124
88	0x3d64fb38	0.055903643
89	0xbcce968e	-0.025218274
90	0x3e8b4c18	0.27206492
91	0xbd2d877b	-0.042365532
92	0xbb35f26e	-0.0027762908
93	0x3daa63b6	0.083197996
94	0xbd00bfd6	-0.03143295
95	0xbda1ce1d	-0.07900641
96	0x3d5e22d5	0.054232437
97	0xbd2ec86c	-0.042671606
98	0x3cace0c1	0.021103265
99	0x3d49560d	0.04915433
100	0xbd1029ee	-0.035196237
101	0xbca000ec	-0.01953169
102	0x3dd2d8c5	0.10295252
103	0x3cd13c6a	0.025541503
104	0x3d90793b	0.07054373
105	0xbde73ed5	-0.11291281
106	0x3e366e3d	0.1781549
107	0xbda0e7e3	-0.07856729
108	0x3d16a90b	0.036782306
109	0x3dba7e40	0.091061115
110	0x3d732011	0.059356753
111	0x3bedc3f9	0.007256028
112	0x3bf05e1c	0.0073354375
113	0x3d2b303b	0.041794043
114	0xbd92ef45	-0.07174543
115	0x3d637940	0.055535555
116	0x3caaf4ed	0.020868743
117	0x399f4138	0.00030375435
118	0xbd1605ac	-0.036626503
119	0xbaed0a68	-0.0018084766
120	0x3d9e4cbc	0.0772948
121	0xbc2fcf87	-0.010730631
122	0x3b014b2a	0.001972864
123	0xbbc4cbe9	-0.0060057533
124	0x3ca9d773	0.020732617
125	0x3d08fe5d	0.033445705
126	0x3c3e1332	0.011601256
127	0x3d70b303	0.05876447
128	0xbdbf93a7	-0.09354334
129	0xbcd9fc00	-0.02660942
130	0xbd88bba9	-0.06676418
131	0x3d563366	0.05229511
132	0x3bf850dc	0.0075779986
133	0x3b10d870	0.0022101663
134	0x3d3438cc	0.04399948
135	0x3d201821	0.03908551
136	0xbbace937	-0.005276825
137	0xbe451395	-0.19245751
138	0x3dc6ebf0	0.0971297
139	0x3d3d7451	0.046253506
140	0x3cf10d6d	0.029425347
141	0xbcb84a7c	-0.022496454
142	0xbc424357	-0.011856875
143	0xbbb23f3b	-0.0054396666
144	0x3de4fe06	0.111812636
145	0xbda648c6	-0.08119349
146	0xbc23b3a4	-0.00999156
147	0xbcf1dc35	-0.029523948
148	0x3c4e0e98	0.012576722
149	0xbcff0f51	-0.031135233
150	0x3e72767d	0.23678012
151	0x3e248c77	0.16069208
152	0x3da6c83f	0.08143663
153	0xbc18a5ff	-0.00931692
154	0x3e790d67	0.24321519
155	0xbd5d94b6	-0.0540969
156	0xbcb922ba	-0.022599567
157	0x3e0913ba	0.13386431
158	0xbdcdf853	-0.1005713
159	0xbd643b71	-0.05572075
160	0xbcc3f85f	-0.023922144
161	0xbd7d0eae	-0.061781578
162	0xbdc9e6eb	-0.09858497
163	0x3d00cf3e	0.03144764
164	0xbd195e48	-0.03744343
165	0xbc73f0c6	-0.014888948
166	0x3e102736	0.14077458
167	0x3d9a1bf1	0.07524861
168	0x3d36390b	0.044487994
169	0xbdbbaf86	-0.09164338
170	0x3d5e6d20	0.05430329
171	0xbc4e1b4b	-0.012579749
172	0x3d47405c	0.048645362
173	0x3de62a07	0.11238485
174	0x3c531324	0.012882981
175	0xbdae5883	-0.08512976
176	0x3cdfb4fe	0.027307983
177	0x3d31cc45	0.043407697
178	0xbd9dd8b4	-0.077073485
179	0xbc8e7dc1	-0.017393949
180	0x3d43281d	0.047645677
181	0x3cc2e47b	0.023790589
182	0x3e31b638	0.17354667
183	0x3d23243c	0.039829478
184	0x3d787521	0.060658578
185	0xbd585533	-0.052815627
186	0x3d94b728	0.07261497
187	0xbd14c9f9	-0.03632543
188	0x3d7d0823	0.061775338
189	0x3d18a807	0.03726962
190	0x3c70150b	0.014653455
191	0xbc62c478	-0.013840787
192	0xbbb9319c	-0.005651666
193	0x3d987397	0.07443922
194	0xbda1c951	-0.07899726
195	0x3daa0a42	0.08302738
196	0x3d9f7e87	0.07787805
197	0x3d8e2afd	0.06941793
198	0xbd05f083	-0.032700073
199	0xbd602aa6	-0.054728173
200	0xba12d5fa	-0.0005601343
201	0xbdb02aac	-0.08601889
202	0x3d1f8ee5	0.038954634
203	0xbc92615e	-0.017868694
204	0x3d75c177	0.059998956
205	0xbdb8ca72	-0.090229884
206	0xbd1ed032	-0.03877277
207	0xbce17bd4	-0.027524866
208	0xbc1b9de3	-0.009498092
209	0xbd3825f4	-0.04495807
210	0x3bcbf288	0.0062239803
211	0x3cd2f974	0.025753714
212	0x3d79b8e8	0.060967356
213	0x3d0d4fed	0.03450005
214	0x3d88f20f	0.06686794
215	0x3b9e1bd5	0.004825095
216	0x3ba6ca71	0.005090051
217	0xbd9e6f2b	-0.07736047
218	0x3dad05d4	0.08448377
219	0x3ce3f1dc	0.027825288
220	0x3dab0033	0.083496474
221	0xbd0f663e	-0.035009615
222	0xbd3c5861	-0.045982722
223	0x3bb67a0a	0.0055687474
224	0x3d07692b	0.03305928
225	0xbd2775e5	-0.040883917
226	0xbdb09dfe	-0.086238846
227	0x3d20b487	0.039234664
228	0x3ce66886	0.028126013
229	0x3d134214	0.03595169
230	0x3dfa2e4d	0.122158624
231	0x3ca3f40b	0.02001383
232	0x3d2c9b18	0.042140096
233	0xbd8a5e18	-0.06756228
234	0x3c6cc24d	0.014450622
235	0x3d625868	0.055260092
236	0x3d595508	0.053059608
237	0x3d6e499b	0.058175664
238	0xbbd4a304	-0.0064891595
239	0x3cba01c3	0.022705918
240	0x3cd994aa	0.026560146
241	0x3d1dbb82	0.0385089
242	0xbcb2082e	-0.021732416
243	0x3d9367c3	0.07197525
244	0x3d95da95	0.07317082
245	0x3c83a331	0.016069027
246	0xbb5472a7	-0.003241697
247	0xbcc2eb9a	-0.023793984
248	0x3cec3536	0.028833967
249	0x3bc31c6a	0.005954315
250	0x3d32c28c	0.043642566
251	0x3d1e5283	0.038652908
252	0x3d7b69a6	0.06138005
253	0xbd6178da	-0.055046894
254	0x3d68fc9d	0.056881536
255	0xbbd2c0aa	-0.0064316588

embedding.bias f4 [32]
0	0x3d82fe3d	0.06396148
1	0x3c8e24b7	0.017351491
2	0xbc65aa7d	-0.014017698
3	0x3d7a4d1d	0.061108697
4	0xbde065be	-0.10956906
5	0x3c22ca42	0.009935917
6	0x3d9337e2	0.07188393
7	0x3c33a404	0.010964397
8	0xbd867610	-0.065654874
9	0xbcc94daf	-0.024573175
10	0xbd89ec8d	-0.067345716
11	0xbd942ecb	-0.072354876
12	0xbd0671c7	-0.03282335
13	0xbd64ad23	-0.05582918
14	0x39cf297f	0.00039513034
15	0x3bc029d9	0.0058643636
16	0xbd4c74b2	-0.049915977
17	0xbd2570f3	-0.04039092
18	0xbc563bc9	-0.013075777
19	0xbcc953d4	-0.024576105
20	0x3ae7e354	0.001769165
21	0xbd82cec9	-0.063870974
22	0xbd067a4e	-0.032831483
23	0xbd055383	-0.032550346
24	0x3d212673	0.03934331
25	0xbc469643	-0.012120786
26	0xbd5d4495	-0.054020483
27	0xbda704f9	-0.08155245
28	0xbae9adaf	-0.0017828251
29	0x3caaa036	0.020828348
30	0x3d1a0319	0.03760061
31	0xbd41ef61	-0.04734743

pos_encoder.pe f4 [1, 500, 32]
0	0x00000000	0.0
1	0x3f800000	1.0
2	0x00000000	0.0
3	0x3f800000	1.0
4	0x00000000	0.0
5	0x3f800000	1.0
6	0x00000000	0.0
7	0x3f800000	1.0
8	0x00000000	0.0
9	0x3f800000	1.0
10	0x00000000	0.0
11	0x3f800000	1.0
12	0x00000000	0.0
13	0x3f800000	1.0
14	0x00000000	0.0
15	0x3f800000	1.0
16	0x00000000	0.0
17	0x3f800000	1.0
18	0x00000000	0.0
19	0x3f800000	1.0
20	0x00000000	0.0
21	0x3f800000	1.0
22	0x00000000	0.0
23	0x3f800000	1.0
24	0x00000000	0.0
25	0x3f800000	1.0
26	0x00000000	0.0
27	0x3f800000	1.0
28	0x00000000	0.0
29	0x3f800000	1.0
30	0x00000000	0.0
31	0x3f800000	1.0
32	0x3f576aa4	0.84147096
33	0x3f0a5141	0.54030234
34	0x3f087dba	0.53316844
35	0x3f58940e	0.84600914
36	0x3e9f393e	0.3109836
37	0x3f734e6b	0.9504153
38	0x3e35233a	0.17689219
39	0x3f7bf683	0.9842302
40	0x3dcc7576	0.099833414
41	0x3f7eb898	0.9950042
42	0x3d6636ae	0.05620449
43	0x3f7f9868	0.9984193
44	0x3d01815b	0.031617504
45	0x3f7fdf3c	0.99950004
46	0x3c91ab43	0.01778186
47	0x3f7ff5a3	0.99984187
48	0x3c23d657	0.009999833
49	0x3f7ffcb9	0.99995
50	0x3bb8445a	0.0056233825
51	0x3f7ffef7	0.9999842
52	0x3b4f3e1c	0.0031622713
53	0x3f7fffac	0.999995
54	0x3ae91520	0.0017782785
55	0x3f7fffe6	0.99999845
56	0x3a83126d	0.0009999998
57	0x3f7ffff8	0.9999995
58	0x3a136a13	0.0005623411
59	0x3f7ffffe	0.9999999
60	0x39a5cb60	0.0003162278
61	0x3f7fffff	0.99999994
62	0x393a7753	0.00017782794
63	0x3f800000	1.0
64	0x3f68c7b7	0.9092974
65	0xbed51133	-0.41614684
66	0x3f66f20a	0.9021307
67	0x3edce8b2	0.43146282
68	0x3f17541b	0.5911271
69	0x3f4e7bec	0.8065784
70	0x3eb247f6	0.34820527
71	0x3f6ffaa6	0.93741834
72	0x3e4b6ff8	0.19866931
73	0x3f7ae5a5	0.9800666
74	0x3de5d986	0.1122313
75	0x3f7e61f3	0.9936821
76	0x3d8170c8	0.063203394
77	0x3f7f7cf9	0.9980007
78	0x3d11a55d	0.035558093
79	0x3f7fd68e	0.9993676
80	0x3ca3d43e	0.019998666
81	0x3f7ff2e5	0.9998
82	0x3c38439b	0.011246587
83	0x3f7ffbdb	0.99993676
84	0x3bcf3dd8	0.006324511
85	0x3f7ffeb1	0.99998003
86	0x3b691508	0.0035565514
87	0x3f7fff96	0.9999937
88	0x3b031268	0.0019999985
89	0x3f7fffdf	0.99999803
90	0x3a936a12	0.0011246821
91	0x3f7ffff5	0.99999934
92	0x3a25cb5f	0.0006324555
93	0x3f7ffffd	0.9999998
94	0x39ba7753	0.00035565588
95	0x3f7fffff	0.99999994
96	0x3e1081c3	0.14112
97	0xbf7d7026	-0.9899925
98	0x3f7e45d7	0.9932532
99	0xbded7fab	-0.11596616
100	0x3f5009c2	0.8126489
101	0x3f152f58	0.58275366
102	0x3f022f6c	0.5085361
103	0x3f5c6d29	0.86104065
104	0x3e974e6c	0.2955202
105	0x3f7490ef	0.9553365
106	0x3e2beed7	0.16790329
107	0x3f7c5d9e	0.9858035
108	0x3dc1ffc0	0.094726086
109	0x3f7ed94f	0.99550337
110	0x3d5a694f	0.053323086
111	0x3f7fa2c3	0.9985773
112	0x3cf5b91f	0.0299955
113	0x3f7fe283	0.99955004
114	0x3c8a31c6	0.016869437
115	0x3f7ff6ad	0.9998577
116	0x3c1b6e0d	0.009486687
117	0x3f7ffd0d	0.999955
118	0x3baecfa8	0.005334813
119	0x3f7fff11	0.99998575
120	0x3b449b92	0.0029999954
121	0x3f7fffb5	0.9999955
122	0x3add1f17	0.0016870227
123	0x3f7fffe8	0.99999857
124	0x3a78b10e	0.00094868324
125	0x3f7ffff9	0.9999996
126	0x3a0bd97e	0.0005334838
127	0x3f7ffffe	0.9999999
128	0xbf41bdcf	-0.7568025
129	0xbf275530	-0.6536436
130	0x3f4749ec	0.7784717
131	0xbf20af9e	-0.6276797
132	0x3f741dde	0.95358074
133	0x3e9a2eb1	0.30113748
134	0x3f271fbc	0.652828
135	0x3f41ebed	0.7575062
136	0x3ec761d7	0.38941833
137	0x3f6bcaa7	0.921061
138	0x3e6465c5	0.22304447
139	0x3f798d09	0.9748083
140	0x3e012e88	0.12615407
141	0x3f7df469	0.99201065
142	0x3d918dc9	0.071071215
143	0x3f7f5a46	0.9974712
144	0x3d23cbdb	0.039989334
145	0x3f7fcb94	0.9992001
146	0x3cb840a0	0.022491753
147	0x3f7fef6c	0.99974704
148	0x3c4f3cc9	0.01264877
149	0x3f7ffac2	0.99992
150	0x3be914a7	0.0071130577
151	0x3f7ffe58	0.9999747
152	0x3b831257	0.003999989
153	0x3f7fff7a	0.999992
154	0x3b136a0c	0.0022493629
155	0x3f7fffd6	0.9999975
156	0x3aa5cb5d	0.0012649108
157	0x3f7ffff3	0.9999992
158	0x3a3a7752	0.0007113117
159	0x3f7ffffc	0.99999976
160	0xbf757c10	-0.9589243
161	0x3e913c2c	0.2836622
162	0x3ea5dad8	0.32393527
163	0xbf723240	-0.94607925
164	0x3f7ffc7f	0.99994653
165	0xbc2972e9	-0.010342338
166	0x3f46caab	0.77652997
167	0x3f214cf1	0.6300803
168	0x3ef57743	0.47942552
169	0x3f60a940	0.87758255
170	0x3e8e11ed	0.2774805
171	0x3f75f27c	0.96073127
172	0x3e213c1d	0.15745588
173	0x3f7cce81	0.987526
174	0x3db5db22	0.08879687
175	0x3f7efd1e	0.99604976
176	0x3d4cb6f4	0.049979165
177	0x3f7fae19	0.99875027
178	0x3ce64dfb	0.028113356
179	0x3f7fe619	0.99960476
180	0x3c81857e	0.015810724
181	0x3f7ff7cf	0.999875
182	0x3c11acbb	0.00889128
183	0x3f7ffd69	0.9999605
184	0x3ba3d6dd	0.004999979
185	0x3f7fff2f	0.99998754
186	0x3b384489	0.0028117022
187	0x3f7fffbe	0.99999607
188	0x3acf3e32	0.0015811382
189	0x3f7fffeb	0.99999875
190	0x3a691526	0.0008891396
191	0x3f7ffff9	0.9999996
192	0xbe8f0f8c	-0.2794155
193	0x3f75cdb8	0.96017027
194	0xbe6be576	-0.23036751
195	0xbf791d53	-0.9731037
196	0x3f72784e	0.9471482
197	0xbea43f6d	-0.3207964
198	0x3f603088	0.8757405
199	0x3ef72f35	0.48278204
200	0x3f108c68	0.5646424
201	0x3f534932	0.8253356
202	0x3ea97dfc	0.3310393
203	0x3f7190e2	0.943617
204	0x3e41206e	0.18860027
205	0x3f7b67e3	0.98205394
206	0x3dda19c3	0.10649445
207	0x3f7e8b51	0.9943133
208	0x3d759cd1	0.059964005
209	0x3f7f8a12	0.99820054
210	0x3d0a2cbe	0.033734076
211	0x3f7fdab3	0.99943084
212	0x3c9b6c43	0.018972522
213	0x3f7ff434	0.99982
214	0x3c2ecf05	0.0106694745
215	0x3f7ffc45	0.9999431
216	0x3bc49b58	0.0059999637
217	0x3f7ffed2	0.999982
218	0x3b5d1f03	0.0033740408
219	0x3f7fffa1	0.99999434
220	0x3af8b106	0.0018973656
221	0x3f7fffe2	0.9999982
222	0x3a8bd97c	0.0010669674
223	0x3f7ffff7	0.99999946
224	0x3f283046	0.6569866
225	0x3f40ffbd	0.75390226
226	0xbf36b670	-0.7137213
227	0xbf334f5e	-0.7004298
228	0x3f4ce86e	0.8004216
229	0xbf1974bc	-0.5994375
230	0x3f728444	0.9473307
231	0x3ea3f8ba	0.320257
232	0x3f24eb72	0.6442176
233	0x3f43ccb3	0.7648422
234	0x3ec460de	0.38355154
235	0x3f6c6bc6	0.9235195
236	0x3e60d350	0.2195561
237	0x3f79c0ea	0.9755999
238	0x3dfe46bc	0.12415835
239	0x3f7e04e9	0.9922624
240	0x3d8f3e32	0.06994285
241	0x3f7f5f81	0.997551
242	0x3d21315e	0.03935372
243	0x3f7fcd3b	0.9992253
244	0x3cb552a2	0.022134129
245	0x3f7feff2	0.999755
246	0x3c4bf12a	0.012447635
247	0x3f7ffaec	0.9999225
248	0x3be55fc5	0.006999942
249	0x3f7ffe65	0.9999755
250	0x3b80fcbc	0.0039363783
251	0x3f7fff7e	0.99999225
252	0x3b1111ec	0.0022135926
253	0x3f7fffd7	0.99999756
254	0x3aa32866	0.0012447953
255	0x3f7ffff3	0.9999992

transformer_encoder.layers.0.self_attn.in_proj_weight f4 [96, 32]
0	0xbe0f7c00	-0.14012146
1	0x3e712fd1	0.23553397
2	0xbe0ec112	-0.13940838
3	0xbd28e712	-0.04123599
4	0xbd5a20f2	-0.053254075
5	0xbbf28f5c	-0.0074023437
6	0x3e19da6f	0.15024732
7	0xbc962fba	-0.018333305
8	0xbe291dc7	-0.16515265
9	0xbe36d9c5	-0.1785651
10	0x3da09829	0.07841522
11	0x3cf594c2	0.02997816
12	0xbbbe428c	-0.005806273
13	0xbd0224bf	-0.031773325
14	0x3e40dfd9	0.18835391
15	0xbe2d043c	-0.16896147
16	0x3ea4a98c	0.32160604
17	0x3cf60720	0.030032694
18	0x3da8172d	0.082075454
19	0x3e4b2d5a	0.19841519
20	0xbe834fb4	-0.25646746
21	0xbe5ae915	-0.21377976
22	0xbe3b1442	-0.18269446
23	0xbe4575f8	-0.19283283
24	0xbe80d5c8	-0.25163102
25	0xbe316d36	-0.17326817
26	0x3dd2b9f9	0.10289378
27	0x3e78ba6b	0.24289863
28	0x3dc09d2e	0.0940498
29	0xbb87e3a6	-0.004147011
30	0xbdb5ea3e	-0.08882569
31	0x3c48cdf4	0.012256134
32	0x3e00344d	0.12519951
33	0xbd56bdef	-0.05242723
34	0xbd250525	-0.04028811
35	0x3d6424b7	0.055699077
36	0xbd9c77b9	-0.07640023
37	0xbdc74fd6	-0.09732024
38	0x3dbb2ca9	0.091393776
39	0xbe0e3694	-0.13888007
40	0x3d80fc03	0.062980674
41	0x3df78ba4	0.12087181
42	0xbe360156	-0.17773947
43	0x3e8419ed	0.2580103
44	0xbdd9225b	-0.10602256
45	0x3d43a5ac	0.04776542
46	0x3ccbbe87	0.024871124
47	0x3e17b9a4	0.1481691
48	0xbd2626cc	-0.040564343
49	0xbc90c818	-0.017673537
50	0x3e29c11b	0.1657757
51	0x3cbd191b	0.02308326
52	0xbd7a2fa6	-0.061080597
53	0xbc5be079	-0.013420218
54	0xbe2b08e2	-0.16702607
55	0x3e6c3b5c	0.23069519
56	0x3d9aac71	0.07552422
57	0x3d82f8c4	0.063951045
58	0x3dd9261e	0.106029734
59	0xbd5968cd	-0.05307846
60	0xbda8946b	-0.082314335
61	0x3e5c1fde	0.21496531
62	0x3a0ec5ae	0.00054463267
63	0x3d6c3098	0.05766353
64	0x3c8a595a	0.01688831
65	0x3e56e49e	0.20985648
66	0x3d15bdc5	0.03655793
67	0xbe0d3dac	-0.13793057
68	0xbcf91790	-0.030406743
69	0x3e519991	0.20468737
70	0xbc558e09	-0.013034352
71	0xbdfba18e	-0.122866735
72	0xbd43f110	-0.047837317
73	0xbd8cff80	-0.0688467
74	0x3e5afc37	0.21385275
75	0x3e2bfeb7	0.16796385
76	0x3e572f13	0.21014051
77	0x3e80e209	0.2517245
78	0x3e601b43	0.218854
79	0xbe9b55f8	-0.30339026
80	0x3d553fa0	0.05206263
81	0xbdabc299	-0.08386726
82	0x3e6d1526	0.23152599
83	0x3db47b37	0.08812564
84	0xbc98a5fb	-0.018633833
85	0xbe04bbab	-0.12962215
86	0xbe2fcba2	-0.17167524
87	0x3d3ead3a	0.04655192
88	0xbdbb35c6	-0.09141116
89	0x3dbd1b30	0.09233701
90	0x3d3985fd	0.045293797
91	0x3ddee91b	0.10884305
92	0xbd8a93fd	-0.06766508
93	0x3d68b996	0.056817614
94	0xbdf8539d	-0.12125323
95	0x3e04bff5	0.12963851
96	0x3c84fff2	0.016235325
97	0x3e198814	0.14993316
98	0x3da898bf	0.08232259
99	0x3c06dd31	0.008231447
100	0xbe77f81a	-0.24215737
101	0xbd83d697	-0.06437414
102	0xbd4b941f	-0.049701806
103	0xbc8a132c	-0.016854845
104	0x3e269808	0.16268933
105	0xbd456ebb	-0.048201304
106	0x3e036e70	0.12835097
107	0x3b83fe27	0.0040281
108	0x3e8b2116	0.2717368
109	0x3e94cfd0	0.29064798
110	0x3debbe7d	0.11510942
111	0xbe5b0f7f	-0.2139263
112	0x3e9d82e0	0.30763912
113	0x3dbed1af	0.09317338
114	0x3e9b2e45	0.30308738
115	0x3eaf1e15	0.34202638
116	0xbe8f6d2a	-0.28012973
117	0x3d82c679	0.06385512
118	0xbba0c087	-0.0049057635
119	0x3e6482df	0.22315548
120	0xbe11c56b	-0.14235465
121	0xbd8059a6	-0.06267099
122	0x3e984053	0.29736575
123	0x3ed9eb34	0.42562258
124	0xbd9329db	-0.07185718
125	0x3da9c410	0.08289349
126	0xbd0821ab	-0.033235233
127	0x3dfa63ef	0.12226092
128	0x3e7bd442	0.24592689
129	0x3d83904e	0.06424008
130	0x3cfc557b	0.030802479
131	0x3cf3177b	0.029674282
132	0xbdc40bc8	-0.095725596
133	0xbdee3d60	-0.116328
134	0xbd9e284b	-0.07722529
135	0x3e76d4b9	0.24104585
136	0x3e481920	0.19540834
137	0xbd973ddd	-0.07384846
138	0xbe0e57a5	-0.13900621
139	0xbd0eb0b5	-0.03483649
140	0xbe9f77af	-0.31146
141	0x3e771144	0.2412768
142	0xbd3a723a	-0.04551909
143	0x3dd66727	0.104688935
144	0xbcf206a1	-0.029544177
145	0x3e3cf30d	0.18452092
146	0xbcdffb3e	-0.027341481
147	0x3e0f6c6c	0.14006203
148	0x3e1e83e1	0.15479995
149	0x3d88b326	0.06674795
150	0x3b8621df	0.004093393
151	0x3e130a80	0.14359474
152	0x3d84800c	0.064697355
153	0x3e45fb22	0.19334081
154	0xbe14cae9	-0.14530529
155	0x3c730522	0.014832767
156	0x3e70b3c6	0.23506078
157	0xbe1ea278	-0.15491664
158	0x3d96fa6d	0.07371984
159	0xbde59ba7	-0.11211329
160	0x3e29c111	0.16577555
161	0xbd718460	-0.058964133
162	0x3d73ca39	0.059519026
163	0xba7e250f	-0.0009694853
164	0xbb155fc2	-0.0022792672
165	0xbdf7a5d9	-0.1209218
166	0x3d4e5893	0.05037744
167	0x3c8a498b	0.016880771
168	0x3df2195c	0.11821243
169	0xbe27caf6	-0.16386017
170	0x3de594c3	0.11210015
171	0x3dd11694	0.102093846
172	0x3e73806d	0.2377946
173	0x3e3ec981	0.18631555
174	0x3dfcf81c	0.123520106
175	0xbd166a3e	-0.036722414
176	0x3d1a9d4f	0.037747677
177	0xbcf24e71	-0.02957842
178	0x3e2b40bf	0.16723917
179	0xbd55dfb7	-0.052215304
180	0x3dc2f0c8	0.09518582
181	0xbd8959a0	-0.06706548
182	0xbe1dcd67	-0.15410386
183	0x3dd14213	0.10217681
184	0x3d88de52	0.06683029
185	0xbc6e9108	-0.014560945
186	0xbc964558	-0.018343613
187	0xb938e69c	-0.00017633516
188	0x3c2f8ad3	0.010714251
189	0x3dcd22d4	0.100164086
190	0xbd9ff17b	-0.078097306
191	0x3e1f0243	0.15528207
192	0x3dc6d5f5	0.09708778
193	0xbda03ad9	-0.07823724
194	0xbe03a012	-0.1285403
195	0x3e28ddca	0.16490856
196	0xbc2c9bba	-0.010535175
197	0x3e303fbd	0.17211814
198	0x3dba4e9e	0.09097026
199	0x3e1e22e2	0.15442994
200	0xbd62362a	-0.055227436
201	0x3e56db42	0.20982078
202	0xbe1c83f7	-0.15284716
203	0x3e437110	0.19086099
204	0xbe10aabe	-0.14127633
205	0xbc18fd43	-0.009337726
206	0xbdde3e1c	-0.1085169
207	0xbe4e7714	-0.20162612
208	0xbd0508bf	-0.032479044
209	0xbd99122b	-0.074741684
210	0xbde6c248	-0.11267525
211	0xbe4d6ec4	-0.20061785
212	0x3af9a391	0.0019045939
213	0x3cc37d4b	0.023863455
214	0xbcc7e88e	-0.024402883
215	0x3ae76d98	0.0017656563
216	0xbd12a618	-0.03580293
217	0xbe47736e	-0.19477627
218	0xbe3c7bfa	-0.18406668
219	0xbe2b7276	-0.16742882
220	0xbe3e3b1a	-0.18577233
221	0xbdbc9fb8	-0.092101514
222	0x3c386ee9	0.011256912
223	0x3d6f39ac	0.05840461
224	0x3cfa67b2	0.030567024
225	0x3e4ad87c	0.19809145
226	0xbe11b0dc	-0.14227623
227	0xbdc853fb	-0.09781643
228	0xbe1b2f69	-0.15154804
229	0xbc2b3c8d	-0.010451448
230	0x3e3436db	0.1759905
231	0xbda40db1	-0.08010424
232	0xbce44bb0	-0.027868122
233	0x3ddbe8e3	0.10737779
234	0x3d8262c5	0.06366495
235	0x3cd7579e	0.026286896
236	0xbcc7f163	-0.024407094
237	0xbd4cdf60	-0.050017715
238	0xbcbe1fd6	-0.02320854
239	0x3e184a78	0.14872158
240	0x3dc061e9	0.09393675
241	0xbd92df76	-0.07171528
242	0x3bd871f1	0.0066053797
243	0xbb0673e8	-0.0020515863
244	0x3c767154	0.015041668
245	0x3e0f6a2b	0.14005344
246	0x3d0b8e0f	0.034071025
247	0x3e624fa6	0.22100696
248	0xbde0244c	-0.10944423
249	0x3e1abf84	0.1511212
250	0x3d9e7c65	0.0773857
251	0x3e8195de	0.25309652
252	0xbc53cc67	-0.012927151
253	0x3d1d236e	0.038363867
254	0xbc6c6aee	-0.014429791
255	0x3e17b91f	0.14816712

transformer_encoder.layers.0.self_attn.in_proj_bias f4 [96]
0	0x3d884053	0.06652894
1	0x3e0b662a	0.13613191
2	0x3e0c301c	0.13690227
3	0x3e778054	0.24170047
4	0xbcb48362	-0.022035304
5	0x3dab064b	0.0835081
6	0xb9af8d6b	-0.00033483966
7	0x3e374a15	0.17899354
8	0x3dac5bd9	0.08415956
9	0x3d1e8ef9	0.038710568
10	0x3d0d9eec	0.034575388
11	0x3db07766	0.086165234
12	0xbd87d686	-0.06632714
13	0xb977e60e	-0.00023641458
14	0x3da15992	0.07878412
15	0x3c230109	0.009948977
16	0x3e64063b	0.22268002
17	0x3dcde83e	0.10054062
18	0x3d368d59	0.044568393
19	0x3d41e010	0.047332823
20	0x3d026e29	0.03184334
21	0xbd55a166	-0.052155875
22	0xbd8d3218	-0.0689432
23	0x3dc11882	0.094285026
24	0x3db1e7fd	0.086868264
25	0x3d52a7a7	0.051429417
26	0x3e3fad2b	0.18718402
27	0x3d3f6da4	0.04673542
28	0x3dc73ac2	0.09728004
29	0xbe3b0d32	-0.18266752
30	0x3dbda1d9	0.092593856
31	0xbe35f55b	-0.17769377
32	0xb984f549	-0.00025359754
33	0xb97cc23d	-0.00024104952
34	0x390c1498	0.00013359112
35	0xb9b3bd1e	-0.00034282444
36	0xb8497879	-4.8034333e-05
37	0x39349432	0.00017221345
38	0x39102cda	0.00013749619
39	0xb86f4a01	-5.7050962e-05
40	0xb9970986	-0.0002880806
41	0xba0e4093	-0.00054264924
42	0x3a06599c	0.0005125047
43	0x390fc81c	0.0001371209
44	0x3a0104d8	0.0004921681
45	0xb811d0b5	-3.4765068e-05
46	0xba714f49	-0.0009205235
47	0xb9f1f27c	-0.00046147767
48	0x3aa4e1c6	0.0012579493
49	0x38d0812c	9.942273e-05
50	0xb708a6a0	-8.145027e-06
51	0x39ac24f5	0.00032833932
52	0xb8092d64	-3.270562e-05
53	0x391d4320	0.00014997693
54	0x3a280f15	0.0006410939
55	0xb9780e4c	-0.00023656449
56	0x3835f4fc	4.3381922e-05
57	0x35ee3c80	1.774999e-06
58	0xb7002448	-7.637842e-06
59	0xb884396a	-6.304945e-05
60	0xb9df8434	-0.00042632374
61	0xb90d29fc	-0.00013462448
62	0xb98e4cbb	-0.0002714152
63	0x37e89556	2.7726095e-05
64	0x3cf9e3ac	0.03050407
65	0xbda5a5c1	-0.08088256
66	0xbcf2e8ec	-0.029652081
67	0xbd17ace7	-0.037030127
68	0x3c13a2ea	0.00901101
69	0xbd066405	-0.03281023
70	0x3c9fa88c	0.01948955
71	0xbd264cff	-0.040600773
72	0xbbb3ba03	-0.005484821
73	0x3c81612d	0.015793407
74	0x3cb39e82	0.021926168
75	0x3bb1b9b0	0.005423747
76	0x3c87a23a	0.016556848
77	0xbc6c7e68	-0.0144344345
78	0xbcde91c4	-0.027169116
79	0x3c7ab5e9	0.01530216
80	0x3a53b738	0.0008076313
81	0xbd345014	-0.04402168
82	0xbc5ae60b	-0.013360511
83	0x3c8db188	0.017296568
84	0xbbf414b5	-0.0074487575
85	0xbd532ddd	-0.05155741
86	0xbc9f0a13	-0.019413983
87	0x3b9fe236	0.0048792614
88	0xbbc2ad17	-0.005941044
89	0xbcf68b06	-0.030095588
90	0x3d2ea241	0.042635206
91	0x3ca7c2f4	0.020478703
92	0x3ca7771a	0.020442534
93	0xbc6cc788	-0.014451869
94	0x3c5967ac	0.013269346
95	0x3bb4d116	0.005518089

transformer_encoder.layers.0.self_attn.out_proj.weight f4 [32, 32]
0	0xbc50d65c	-0.01274642
1	0x3df7cf9c	0.12100145
2	0xbd13befc	-0.03607081
3	0xbdfcbd8c	-0.12340841
4	0x3c6e520a	0.014545927
5	0x3c3205be	0.010865627
6	0xbe103219	-0.1408161
7	0xbe889352	-0.26674896
8	0xbe7a3a63	-0.24436335
9	0xbe0e5fda	-0.13903752
10	0xbd8128a6	-0.06306581
11	0xbd4b5d4b	-0.049649518
12	0x3d4572e4	0.04820527
13	0x3ddca500	0.10773659
14	0xbdb25cab	-0.08709081
15	0xbd482f90	-0.048873484
16	0xbe5178f6	-0.20456299
17	0x3e23460a	0.15944687
18	0x3dcff066	0.10153274
19	0xbe909d65	-0.28245082
20	0xbe8e198b	-0.27753863
21	0x3e5d914c	0.21637458
22	0x3d98f2a4	0.07468155
23	0xbe54cf68	-0.20782244
24	0x3e20a0cc	0.15686339
25	0x3cc60ad3	0.024175083
26	0x3e256af1	0.16154076
27	0x3d2e9336	0.04262086
28	0xbe2b0838	-0.16702354
29	0x3c41752d	0.011807722
30	0xbcb36a41	-0.021901252
31	0x3e2f49d7	0.17118011
32	0xbc58fa33	-0.013243246
33	0x3d18488a	0.037178554
34	0xbdb422fe	-0.08795737
35	0x3d66372f	0.05620497
36	0x3d8af360	0.06784701
37	0x3e2f9420	0.17146349
38	0x3d257a4d	0.04039984
39	0xbe0d1ec3	-0.13781266
40	0xbe3e4946	-0.18582639
41	0xbd2f5613	-0.042806696
42	0xbd5d7650	-0.05406791
43	0x3df1be0a	0.11803825
44	0xbd2b71e8	-0.041856676
45	0x3e3a97fd	0.18222041
46	0xbdcac9cf	-0.09901773
47	0x3e514a86	0.20438585
48	0xbe42ebef	-0.19035314
49	0xbc7e8d12	-0.0155365635
50	0x3dcd5260	0.100254774
51	0x3de330fb	0.11093327
52	0xbd91dd45	-0.07122282
53	0xbd3cc7d5	-0.046089012
54	0x3d8ca07b	0.06866547
55	0xbdbfd723	-0.09367206
56	0x3da38bff	0.079856865
57	0xbdc83b7f	-0.09776973
58	0x3dc8d24b	0.09805735
59	0x3e63bbdf	0.22239636
60	0xbd44412a	-0.047913708
61	0x3e2f36bd	0.17110725
62	0x3d15f8c0	0.03661418
63	0xbdab95ea	-0.08378203
64	0xbcb373c5	-0.02190579
65	0xbe07914b	-0.13239019
66	0xbd938b8b	-0.0720435
67	0xbe20dbd5	-0.1570886
68	0xbda037fa	-0.07823177
69	0xbd6b8e5c	-0.05750881
70	0xbc4de98f	-0.012567892
71	0x3d46d3c7	0.04854181
72	0xbd19adf8	-0.037519425
73	0x3d26a809	0.040687595
74	0x3dfba4a2	0.122872606
75	0xbe08f35c	-0.13374084
76	0x3db97744	0.09055951
77	0x3e636050	0.22204709
78	0x3e380125	0.17969187
79	0xbe35e7ac	-0.17764157
80	0xbe68e5dc	-0.22743934
81	0xbdbd1548	-0.09232575
82	0x3d55be4f	0.052183446
83	0xbe883353	-0.26601657
84	0xbdb7c14b	-0.089724146
85	0x3e0175d0	0.12642598
86	0x3d029ce9	0.031887922
87	0xbe129a37	-0.14316641
88	0x3d2b04a2	0.041752465
89	0x3db74a98	0.089497745
90	0x3e3ab37b	0.18232529
91	0x3c8ccf33	0.017188644
92	0x3e09d617	0.13460575
93	0x3d01eb0a	0.03171829
94	0x3d869c89	0.065728255
95	0xbd6d3510	-0.057911932
96	0xbe16e8ef	-0.14737295
97	0x3e26a715	0.16274674
98	0x3e221a33	0.15830307
99	0xbe12617e	-0.14295003
100	0x3dbefe81	0.093258865
101	0x3dd2c592	0.1029159
102	0xbe58d50f	-0.21175025
103	0x3dc52173	0.096255206
104	0xbe58ee90	-0.21184754
105	0xbd0a31b9	-0.033738825
106	0x3d8be43a	0.0683064
107	0xbdf3f0d3	-0.11911168
108	0x3e4033f2	0.18769816
109	0x3e7ed94d	0.24887581
110	0x3e01b383	0.12666135
111	0x3cfe7929	0.031063633
112	0xbe8dd794	-0.27703536
113	0x3d403e3c	0.04693435
114	0x3e2e3565	0.17012556
115	0xbe546020	-0.20739794
116	0xbdf5162c	-0.119671196
117	0x3e20267a	0.15639678
118	0x3cd24714	0.025668658
119	0xbde87ed5	-0.11352316
120	0xbde7fd79	-0.11327643
121	0x3dd15b8b	0.102225386
122	0xbd1983c3	-0.037479173
123	0x3c335105	0.0109446095
124	0xbe0e41f9	-0.13892354
125	0xbbd7c4cf	-0.0065847407
126	0x3b5f32ea	0.0034057447
127	0x3d017298	0.031603426
128	0x3cc06100	0.023483753
129	0x3e1365af	0.14394258
130	0xbbbf39d0	-0.005835749
131	0xbe5aa664	-0.21352535
132	0x3db0fb73	0.0864171
133	0xbd2418c9	-0.0400627
134	0xbe2338ba	-0.15939608
135	0x3d769406	0.06019976
136	0xbca0fb2e	-0.019651022
137	0x3d656217	0.05600175
138	0x3e0dd717	0.13851582
139	0x3e1cba34	0.15305406
140	0xbb17c4ac	-0.0023157997
141	0xbd057023	-0.032577645
142	0xbc93c338	-0.018037423
143	0xbdc3b597	-0.0955612
144	0x3ccad502	0.024759773
145	0xbd00a7d2	-0.031410046
146	0x3d0656a3	0.032797467
147	0xbc2f39cd	-0.010694933
148	0x3e05af5f	0.1305518
149	0x3d1083a7	0.035281803
150	0x3da3efa2	0.08004691
151	0xbda81879	-0.08207793
152	0xbdaa5f7d	-0.08318994
153	0xbd73daf1	-0.05953497
154	0xbcb583ce	-0.022157576
155	0x3db1eb85	0.086875
156	0xbc678fd6	-0.014133414
157	0xbdefb2fe	-0.11704062
158	0x3c17f1ba	0.009273941
159	0xbde931fb	-0.11386486
160	0xbe151e26	-0.14562282
161	0x3dc97eb0	0.09838617
162	0xbd6cdaf7	-0.05782601
163	0x3e18721d	0.14887281
164	0x3c9278a9	0.0178798
165	0xbe1b0296	-0.15137705
166	0x3df494e2	0.1194246
167	0x3e2a5b34	0.16636354
168	0xbc5dd088	-0.013538487
169	0x3e20b437	0.15693747
170	0x3ce6bfb3	0.028167581
171	0xbd92b6d7	-0.0716378
172	0xbdf8b88a	-0.12144573
173	0x3dbcb9b2	0.09215106
174	0xbcd8f8cc	-0.026485823
175	0xbd305f59	-0.04305968
176	0x3db6dd2b	0.08928903
177	0xbe0f9fbe	-0.1402578
178	0xbd5b7d95	-0.05358656
179	0x3e0ff33e	0.14057633
180	0x3e92cf8d	0.28673974
181	0x3d492858	0.04911074
182	0xbd19488e	-0.03742271
183	0x3dcd58e1	0.10026718
184	0x3d8c61a8	0.06854564
185	0xbda762fa	-0.08173175
186	0xbe41288d	-0.18863125
187	0xbdd0b905	-0.1019154
188	0xbd9e0513	-0.077158116
189	0x3d1fc6e7	0.039008047
190	0xbd4776c3	-0.048697244
191	0xbdfeaad5	-0.124349274
192	0x3dbdaaaf	0.09261071
193	0x3dfd52de	0.12369321
194	0xbe6b419b	-0.22974245
195	0x3e311656	0.17293677
196	0x3dac9825	0.08427457
197	0x3c571d35	0.013129522
198	0xbd1d6997	-0.038430776
199	0xbe411f91	-0.18859698
200	0x3b489898	0.003060853
201	0x3db8e4d6	0.09028022
202	0x3e2187cc	0.15774459
203	0xbd4c0b10	-0.049815238
204	0xbb7333bd	-0.0037109696
205	0xbdebb225	-0.11508588
206	0xbce6bc64	-0.028166004
207	0x3ce9c20f	0.028534917
208	0x3d7c86ee	0.061652116
209	0xbe0605b5	-0.13088115
210	0x3dc98318	0.09839457
211	0x3e13e68f	0.1444342
212	0xbcd6c726	-0.026218008
213	0xbe4b5e00	-0.19860077
214	0xbdaba657	-0.08381336
215	0x3c21989b	0.009863044
216	0x3c9cac21	0.019125046
217	0x3b36c710	0.0027889647
218	0x3bbb73db	0.005720598
219	0x3d1851c8	0.037187368
220	0xbdc638a3	-0.09678771
221	0x3e13b06e	0.14422771
222	0xbca95092	-0.020668302
223	0x3cd8499e	0.02640229
224	0xbdf8d97d	-0.121508576
225	0xbd9b322f	-0.07577931
226	0x3e134a40	0.14383793
227	0x3b92d0ff	0.0044804807
228	0xbe388121	-0.18018009
229	0xbd7007dd	-0.05860125
230	0xbd22ea96	-0.0397745
231	0xbe3a2a6c	-0.18180245
232	0xbe614a9b	-0.22001116
233	0x3d5b5883	0.05355121
234	0x3ceb9dd3	0.02876178
235	0xbc920a6d	-0.017827237
236	0x3de0137a	0.10941215
237	0x3bd0fe09	0.0063779396
238	0xbdef6a45	-0.11690191
239	0x3d9bbabf	0.07603978
240	0xbdd69b4f	-0.104788415
241	0x3ce6cbd1	0.02817336
242	0x3d3263b7	0.043552127
243	0xbd4e6a73	-0.050394487
244	0xbe101323	-0.140698
245	0x3a2b3b2c	0.00065319496
246	0xbd54b033	-0.05192585
247	0xbde14f6d	-0.110014774
248	0x3d0c3009	0.034225497
249	0x3c31eba2	0.010859402
250	0x3e1fb224	0.15595299
251	0xbd4fa428	-0.05069366
252	0xbd9fa41b	-0.077949725
253	0xbc02994e	-0.007971121
254	0xbd227577	-0.039662804
255	0x3e581c46	0.21104535

transformer_encoder.layers.0.self_attn.out_proj.bias f4 [32]
0	0x3ca4afeb	0.020103415
1	0x3c964a05	0.018345842
2	0xba8ecddb	-0.001089509
3	0xbd81e60d	-0.06342707
4	0xbd7ce9fc	-0.061746582
5	0xbcb2f9bc	-0.021847598
6	0x3d60d441	0.05488992
7	0x3d6f8d1c	0.05848418
8	0xbd097ae0	-0.03356445
9	0x3d8c2f2d	0.068449356
10	0xbd0cd1ba	-0.0343797
11	0x3b1a6d83	0.002356381
12	0xbd8c3d7c	-0.06847665
13	0x3c221417	0.009892485
14	0xbd42fe2c	-0.04760568
15	0xbbc85d3e	-0.006114631
16	0x3d218ffe	0.039443962
17	0x3be6723e	0.0070326617
18	0x3d27b3d0	0.040942967
19	0x3d3b981f	0.04579937
20	0xbd30a72b	-0.043128174
21	0xbd11dc0d	-0.035610247
22	0xbd0ea22c	-0.034822628
23	0xbcf5bc68	-0.029997066
24	0x3cee4946	0.029087674
25	0x3c8fe910	0.017567188
26	0x3b00e882	0.0019669835
27	0xbbc8d9f9	-0.0061295
28	0x3ad7a762	0.0016453082
29	0xbcacfcfb	-0.021116724
30	0xbce3d99a	-0.027813721
31	0xbd30dcc9	-0.043179307

transformer_encoder.layers.0.linear1.weight f4 [32, 32]
0	0xbca3059c	-0.019900136
1	0xbd10b12a	-0.035325207
2	0x3db2cb62	0.087301984
3	0x3e099836	0.1343697
4	0x3dbadbd8	0.09123963
5	0x3dd0dc4b	0.101982675
6	0xbe1fc1ba	-0.15601245
7	0x3e171e7b	0.14757721
8	0x3dee382a	0.11631806
9	0xbdc06c41	-0.09395648
10	0xbc2e4ccd	-0.010638428
11	0xbe3ba1f3	-0.18323497
12	0xbd81f361	-0.06345249
13	0xbe0922ec	-0.13392228
14	0xbe4df858	-0.20114267
15	0x3d5214e0	0.05128944
16	0x3d5ff90b	0.054680865
17	0xbd7e0106	-0.062012695
18	0xbe150e23	-0.14556174
19	0xbe72be91	-0.23705508
20	0x3df23a65	0.11827544
21	0xbc8c22b0	-0.017106384
22	0x3e0461f3	0.1292799
23	0x3e19401d	0.14965864
24	0x3dfc5b25	0.12322072
25	0xbd0fc660	-0.035101295
26	0xbde7bef4	-0.11315718
27	0xbd957d51	-0.07299293
28	0x3d04cad6	0.032420002
29	0x3db7c085	0.08972267
30	0xbccdea0d	-0.025136018
31	0xbe11eefd	-0.14251323
32	0xbc47a43b	-0.012185152
33	0x3d3f361d	0.046682466
34	0x3e34963f	0.1763544
35	0x3d4860e4	0.048920527
36	0xbddc8bef	-0.10768878
37	0x3da213dd	0.07913945
38	0xbc8bbcfb	-0.017057886
39	0x3e0f944f	0.14021419
40	0xbd6c6c3a	-0.0577204
41	0xbb898caf	-0.004197679
42	0x3d988a05	0.074482
43	0xbe1e9252	-0.15485504
44	0xbd09bff9	-0.033630345
45	0xbe118efd	-0.14214702
46	0x3ce7c427	0.028291775
47	0xbe52b6c8	-0.20577538
48	0x3da4fece	0.08056413
49	0x3d3526db	0.04422651
50	0xbc689a8f	-0.014197006
51	0x3e06c416	0.13160738
52	0xbda4c58e	-0.08045493
53	0xbdb48dbf	-0.088160984
54	0x3e3c6c33	0.1840065
55	0xbe439f6b	-0.19103782
56	0x3e259df0	0.1617353
57	0xbda86970	-0.082232356
58	0xbc6c8870	-0.014436826
59	0x3b5e57f9	0.0033926948
60	0xbdb62322	-0.0889342
61	0xbbfccb65	-0.007714676
62	0x3e4305e2	0.19045213
63	0xbe1636dd	-0.14669366
64	0x3bd06f69	0.0063609374
65	0x3da26486	0.079293296
66	0x3dd6e59e	0.10493015
67	0xbaaa11b7	-0.001297525
68	0xbc8902d2	-0.016724978
69	0x3e518c4d	0.20463677
70	0xbd6d099e	-0.0578705
71	0x3d7bc171	0.061463777
72	0xbb26f206	-0.0025473847
73	0xbc8c1acf	-0.017102627
74	0x3e103252	0.14081696
75	0x3cf25fe0	0.029586732
76	0xbd499817	-0.04921731
77	0xbdbceb48	-0.09224564
78	0xba3290bd	-0.0006811729
79	0x3bd5db22	0.006526367
80	0xbdb2ae8e	-0.087247
81	0xbdd3cebb	-0.10342165
82	0xbe09988a	-0.13437095
83	0x3e398b55	0.18119557
84	0x3d244459	0.040104244
85	0xbd04e895	-0.03244837
86	0x3df21e40	0.11822176
87	0x3cde4e55	0.027136961
88	0x3c811f9f	0.015762148
89	0xbdc5b89e	-0.096543536
90	0xbe796667	-0.2435547
91	0x3d14ddfb	0.03634451
92	0xbd1a0211	-0.037599627
93	0x3c82b75f	0.015956579
94	0x3e226c9e	0.15861747
95	0x3db54afb	0.08852192
96	0xbca3f3b5	-0.02001367
97	0xbe20d0e4	-0.15704685
98	0xba778603	-0.00094422715
99	0x3de26598	0.11054534
100	0x3d816f4a	0.06320055
101	0x3c83d102	0.016090874
102	0xbe217c0d	-0.15769978
103	0x3de63446	0.11240439
104	0xbb16f27b	-0.0023032713
105	0x3aeab5c9	0.0017906959
106	0x3cb3a045	0.021927008
107	0xbe4530e3	-0.1925693
108	0xbdff214c	-0.12457523
109	0xbaca1cc0	-0.0015419945
110	0xbd92da15	-0.07170502
111	0xbdd01a10	-0.10161221
112	0x3c55cee1	0.013049812
113	0x3cc5f349	0.024163859
114	0xbe4948d7	-0.19656692
115	0xbd63ba56	-0.055597626
116	0x3deed247	0.11661201
117	0x3d69f57a	0.05711887
118	0x3dd479ed	0.10374818
119	0x3dff73f0	0.12473285
120	0x3dc7b090	0.097504735
121	0xbd7056ac	-0.058676407
122	0xbe4ae020	-0.1981206
123	0xbde83d01	-0.113397606
124	0xbd4dde8a	-0.050261058
125	0x3d53014f	0.05151492
126	0x3cf8c780	0.030368567
127	0xbe149ca7	-0.14512883
128	0x3d39bb0e	0.045344405
129	0xbe31a45c	-0.17347854
130	0xbe2892f2	-0.16462305
131	0xbde4f94a	-0.111803606
132	0xbce3e3ea	-0.027818639
133	0xbcb992a8	-0.022652939
134	0x3dda6bfd	0.106651284
135	0xbd0572df	-0.032580253
136	0x3da3fe40	0.08007479
137	0x3e713062	0.23553613
138	0x3c816313	0.015794313
139	0x3d093dd5	0.033506233
140	0xbd8cf8d8	-0.06883401
141	0xbe16640c	-0.14686602
142	0xbe0d1051	-0.13775755
143	0x3e6bc5ae	0.23024628
144	0x3cade345	0.021226535
145	0xbddd394e	-0.108019456
146	0xbe59187e	-0.2120075
147	0xbe00eca8	-0.12590277
148	0x3db3b050	0.08773863
149	0xbdac651a	-0.08417721
150	0xbdb0b613	-0.08628478
151	0x3dd22dcb	0.102626406
152	0xbe4ed104	-0.2019692
153	0xbd48161b	-0.048849206
154	0x3e55dbe7	0.20884667
155	0xbe08f158	-0.13373315
156	0xbde72924	-0.11287144
157	0x3e161679	0.1465701
158	0xbddf4a13	-0.109028004
159	0xbd7eb3cf	-0.062183198
160	0x3d9254a6	0.07145052
161	0xbe2a8637	-0.16652761
162	0x3dfdd9e7	0.12395077
163	0x3c8e5877	0.017376168
164	0x3e159c82	0.14610484
165	0xbc8f2b4c	-0.0174767
166	0xbd978d30	-0.07399976
167	0x3d1f045f	0.038822528
168	0x3da04441	0.078255184
169	0xbc228cc2	-0.009921255
170	0x3db5cfc8	0.08877522
171	0xbe524a86	-0.20536241
172	0xbddca127	-0.10772925
173	0x3dbe5769	0.09294016
174	0xbe044b8f	-0.12919448
175	0x3c90d3d8	0.01767914
176	0xbd01f12b	-0.031724136
177	0xbe0982ed	-0.1342885
178	0xbe07a15a	-0.13245144
179	0xbe5b67cd	-0.21426316
180	0x3e7b58e1	0.24545623
181	0x3e8c3e70	0.27391386
182	0xbd4282bd	-0.047487963
183	0x3e3f9010	0.18707299
184	0x3e61d8f2	0.22055414
185	0x3c85c67f	0.016330002
186	0x3d89d972	0.067309275
187	0xbe64c344	-0.22340113
188	0x3d58e78e	0.052955203
189	0xbe26f322	-0.16303685
190	0x3e40f5c9	0.1884376
191	0xbe39afd6	-0.18133482
192	0xbe0722d6	-0.13196883
193	0x3c5e6810	0.013574615
194	0x3c92f885	0.017940769
195	0x3dba371e	0.09092544
196	0x3e147f47	0.14501677
197	0x3e6e20fe	0.23254773
198	0x3e368ac5	0.17826374
199	0xbe159360	-0.14607
200	0xbe89bfae	-0.26904052
201	0xbd5580dd	-0.052124847
202	0x3e2bf286	0.16791734
203	0x3e5f17ca	0.21786419
204	0xbda674a1	-0.08127714
205	0x3b8d6b8d	0.0043157996
206	0xbea572fd	-0.32314292
207	0xbc1f282a	-0.009714166
208	0x3e6bfb61	0.23045112
209	0xbd2e6eaf	-0.042586025
210	0xbe0ce0a2	-0.13757566
211	0xbc59b7fc	-0.013288494
212	0xbdcac80a	-0.09901436
213	0x3e7bd8dd	0.24594446
214	0x3d9beb70	0.076132655
215	0xbde186f0	-0.110120654
216	0x3e49ae7c	0.19695467
217	0xbcef2fb5	-0.029197553
218	0x3d66267d	0.05618905
219	0xbdddc101	-0.10827828
220	0x3ddd9cde	0.10820936
221	0xbe365934	-0.17807466
222	0xbdef05d3	-0.11671033
223	0x3d384430	0.044986904
224	0x3de42c16	0.11141221
225	0xbd4983bd	-0.0491979
226	0xbdc774ae	-0.09739052
227	0x3e180fbe	0.14849755
228	0x3c73c899	0.014879369
229	0x3e0df4a3	0.13862853
230	0x3d6b9d68	0.05752316
231	0x3e5e5506	0.21712121
232	0xbd237534	-0.039906695
233	0x3e286ff7	0.16448961
234	0x3c92a51a	0.017900992
235	0x3dbe89ac	0.093036026
236	0xbc0092ab	-0.007847468
237	0xbcf4079f	-0.02978879
238	0xbdf8b2e1	-0.121434934
239	0x3ddc7bb5	0.10765783
240	0xbce4d312	-0.027932677
241	0x3da18c09	0.07888038
242	0xbe155af5	-0.14585479
243	0xbe09ae0a	-0.13445297
244	0xbce6db95	-0.028180877
245	0x3c8b6d4e	0.017019894
246	0xbdecfb00	-0.11571312
247	0xbdb5fa7e	-0.08885668
248	0xbde6cdf3	-0.112697504
249	0xbd4ee2a5	-0.050509114
250	0x3ddb20d2	0.10699619
251	0xbc18ec2c	-0.0093336515
252	0x3d814cea	0.06313498
253	0xbe35b2cf	-0.17743991
254	0x3b95b81f	0.004569068
255	0x3e2d4747	0.16921721

transformer_encoder.layers.0.linear1.bias f4 [32]
0	0xbe380113	-0.1796916
1	0xbe2d9f44	-0.16955286
2	0xbcb00879	-0.021488415
3	0x3da4899b	0.08034059
4	0x3e1b0b4c	0.15141028
5	0xbdbc70f4	-0.092012316
6	0x3d981c2d	0.07427249
7	0x3d777c74	0.060421422
8	0x3d3ebdd8	0.046567768
9	0xbcfacea2	-0.030616108
10	0xbdada2b8	-0.08478302
11	0x3d37331e	0.044726484
12	0xbb7eb9ff	-0.0038868187
13	0xbccc4714	-0.024936236
14	0xbe72e5fc	-0.23720545
15	0x3c1de894	0.0096379705
16	0x3d7ea105	0.06216528
17	0xbd9e84ae	-0.077401504
18	0xbd497a53	-0.049188923
19	0x3df1c1a1	0.1180451
20	0xbe0fb451	-0.14033629
21	0xbe6fbcb1	-0.23411824
22	0xbe3b33bc	-0.18281454
23	0x3dc3be74	0.095578104
24	0xbe3c5607	-0.18392192
25	0xbdd1e0df	-0.10247969
26	0xbd5963be	-0.053073637
27	0x3dcb605e	0.0993049
28	0xbda32513	-0.07966056
29	0xbe374081	-0.178957
30	0xbd582c21	-0.05277646
31	0xbe49ff58	-0.19726312
